…
2025-04-15 15:36:27,022 - SteganographyTraining - INFO - Scanning directory 50_speakers_audio_data for WAV files...
2025-04-15 15:36:27,035 - SteganographyTraining - INFO - Found 2511 WAV files for training
2025-04-15 15:36:27,035 - SteganographyTraining - INFO - Dataset preparation took 0.01 seconds
2025-04-15 15:36:27,035 - SteganographyTraining - INFO - Estimated training time: 0:52:20
2025-04-15 15:36:27,035 - SteganographyTraining - INFO - Estimated completion time: 2025-04-15 16:28:47
2025-04-15 15:36:28,471 - SteganographyTraining - INFO - Moth Encoder Architecture:
MothEncoder(
  (conv1): Conv1d(1, 32, kernel_size=(8,), stride=(4,))
  (conv2): Conv1d(32, 64, kernel_size=(8,), stride=(4,))
  (conv3): Conv1d(64, 128, kernel_size=(8,), stride=(4,))
  (fc1): Linear(in_features=191744, out_features=512, bias=True)
  (fc2): Linear(in_features=512, out_features=96000, bias=True)
)
2025-04-15 15:36:28,471 - SteganographyTraining - INFO - Bat Decoder Architecture:
BatDecoder(
  (conv1): Conv1d(1, 32, kernel_size=(8,), stride=(4,))
  (conv2): Conv1d(32, 64, kernel_size=(8,), stride=(4,))
  (conv3): Conv1d(64, 128, kernel_size=(8,), stride=(4,))
  (fc1): Linear(in_features=191744, out_features=512, bias=True)
  (fc2): Linear(in_features=512, out_features=1, bias=True)
)
2025-04-15 15:37:47,359 - SteganographyTraining - INFO - MPS detected. Using Apple Silicon GPU.
2025-04-15 15:37:47,359 - SteganographyTraining - INFO - Using device: mps
2025-04-15 15:37:47,359 - SteganographyTraining - INFO - Starting training with parameters:
2025-04-15 15:37:47,359 - SteganographyTraining - INFO - - Training directory: 50_speakers_audio_data
…
