…
2025-05-05 21:44:46,134 - SteganographyTraining - INFO - Scanning directory ./50_speakers_audio_data for WAV files...
2025-05-05 21:44:46,138 - SteganographyTraining - INFO - Found 2450 potential WAV files for training
2025-05-05 21:44:46,139 - SteganographyTraining - INFO - Dataset preparation took 0.00 seconds
2025-05-05 21:44:46,139 - SteganographyTraining - INFO - Estimated training time (approx): 1:16:37
2025-05-05 21:44:46,139 - SteganographyTraining - INFO - Estimated completion time (approx): 2025-05-05 23:01:23
2025-05-05 21:44:46,164 - SteganographyTraining - INFO - Moth Encoder Architecture:
MothEncoder(
  (conv1): Conv1d(1, 32, kernel_size=(8,), stride=(4,))
  (conv2): Conv1d(32, 64, kernel_size=(8,), stride=(4,))
  (conv3): Conv1d(64, 128, kernel_size=(8,), stride=(4,))
  (hidden_conv): Conv1d(128, 512, kernel_size=(1,), stride=(1,))
)
2025-05-05 21:44:46,164 - SteganographyTraining - INFO - Bat Decoder Architecture:
BatDecoder(
  (conv1): Conv1d(1, 64, kernel_size=(8,), stride=(4,))
  (bn1): BatchNorm1d(64, eps=1e-05, momentum=0.1, affine=True, track_running_stats=True)
  (conv2): Conv1d(64, 128, kernel_size=(8,), stride=(4,))
  (bn2): BatchNorm1d(128, eps=1e-05, momentum=0.1, affine=True, track_running_stats=True)
  (conv3): Conv1d(128, 256, kernel_size=(8,), stride=(4,))
  (bn3): BatchNorm1d(256, eps=1e-05, momentum=0.1, affine=True, track_running_stats=True)
  (conv4): Conv1d(256, 256, kernel_size=(8,), stride=(4,))
  (bn4): BatchNorm1d(256, eps=1e-05, momentum=0.1, affine=True, track_running_stats=True)
  (global_pool): AdaptiveAvgPool1d(output_size=1)
  (fc1): Linear(in_features=256, out_features=512, bias=True)
  (dropout1): Dropout(p=0.3, inplace=False)
  (fc2): Linear(in_features=512, out_features=256, bias=True)
  (dropout2): Dropout(p=0.3, inplace=False)
  (fc3): Linear(in_features=256, out_features=1, bias=True)
)
2025-05-05 21:49:51,022 - SteganographyTraining - INFO - 
Epoch 1/15:
2025-05-05 21:49:51,023 - SteganographyTraining - INFO - - Batches Processed: 613
2025-05-05 21:49:51,023 - SteganographyTraining - INFO - - Average Encoder Loss: 0.2379
2025-05-05 21:49:51,023 - SteganographyTraining - INFO - - Average Decoder Loss: 0.1809
2025-05-05 21:49:51,023 - SteganographyTraining - INFO - - Average Decoder Accuracy: 0.5022
…
